pytorch-ann-snake-game-ai-main/model/model.pth (torch, 179000 bytes, 24 tensors)

fc1.weight f4 [128, 16]
0.66227657 -0.112244494 0.901939 -0.64437914 1.1208613 -1.4235648 0.4155715 -2.2541637
0.37873715 0.5096322 -2.1850438 -2.5441687 -0.3851518 0.67986906 0.8598569 0.95095146
-0.35114938 -0.3496125 -1.2025092 -0.8971491 0.22721882 -0.9073891 1.6100363 -0.095813856
0.15222083 -0.76167804 -1.619405 -1.5320425 0.66092354 -0.25394318 0.2600758 0.35712785
-0.71593535 -0.62555325 -0.37872976 0.5616126 -1.602304 0.2981487 0.56317353 -0.44720414
-1.7354487 -0.08518144 0.6194562 0.9678579 0.29290977 -0.27760983 1.2031888 0.7852899
0.8447095 1.0654418 -0.5985922 0.32422215 0.28871122 -1.0162392 0.52549523 0.21416618
0.36293975 -0.9033185 -0.8186652 0.055226248 0.3829148 -1.957507 -2.020398 -0.75495905
-0.07857122 0.70647216 0.24823701 -2.6681414 0.24714652 -2.7008557 -0.060406763 0.82538104
0.16735654 0.94233435 -0.6790962 0.60041577 -0.05513313 0.2950418 -0.3472825 -0.95937395
0.42639473 0.9154415 -0.02292678 -0.94906354 0.67642695 -2.5960577 0.1739567 0.77137774
0.23439333 0.1771556 -0.585392 0.6803503 -1.0086554 0.16465865 0.27299467 0.21387331
-0.44322452 -1.9647492 -0.75132686 0.76921344 0.19173123 1.1314881 -2.5401192 -0.38953
-1.5254292 -1.6363597 0.6156174 1.005882 1.1153908 -2.512033 -0.78961056 0.42037275
1.4694214 -3.806197 -0.71725 0.81669724 1.2677127 0.5381447 0.01163777 -0.9871079
-1.105627 -3.0209718 0.53690195 0.44798738 -0.41992497 1.6611829 0.4341723 -1.7243282
0.60830426 0.33667675 -2.9023724 0.027369373 0.29231903 -0.065511584 -1.5791539 0.8995528
-0.097731635 -1.5390724 1.3946208 -1.5172982 -1.071784 0.23132554 0.8717781 0.6550747
0.04367994 0.96404356 -0.5472544 -0.65656817 -1.0107898 -2.5441744 -0.2310727 0.3922802
-0.7512515 0.75036603 0.4044831 0.8182427 -0.25113362 -0.23608273 0.83997995 0.9502121
-0.11733852 -0.26460993 -0.8863381 0.14854024 -0.1262269 -0.42459258 -2.2691276 -0.032168977
-0.29044542 -3.6088994 -0.06671657 0.605415 -0.06725351 0.71447116 -1.006166 0.15021226
1.1006835 0.32197767 1.6969498 0.42977878 -0.7043863 -0.92812103 -1.2751267 -0.77944183
0.68224597 0.5824387 0.2524879 -0.6080555 1.5345272 0.8046904 0.034024887 -0.17605385
-0.5239191 0.3004472 0.40821362 0.4857241 0.21755525 -1.2143598 -0.27624074 0.36090583
-2.1177516 1.2380918 0.06532065 0.73251784 0.34159502 1.008171 -1.0577855 -3.4948332
-0.8039341 -1.0755739 -0.6658991 0.43488118 1.1873382 -0.16754028 -0.6469032 -0.39793143
0.40244704 -2.5441663 -1.3344917 0.71532345 0.8617012 -1.348348 1.3024482 0.8022878
-0.5907252 -1.6900487 -0.12067196 0.07654309 0.9376681 0.77194333 0.18967675 -0.8995032
-0.6629225 -1.2679123 0.37967324 -0.4622341 -0.18901376 0.24062762 -1.0096629 1.2787201
0.26266503 -0.23474103 0.8587158 -0.9756636 -0.38192865 0.70361257 0.79987127 -0.89769787
-1.3952602 1.0123637 0.394734 -2.8770876 -1.0507501 0.011675152 0.6799709 -0.46666035
00000000: f58a 293f 71e0 e5bd 79e5 663f 08f6 24bf
00000010: 6278 8f3f 5f37 b6bf cac5 d43e 3844 10c0
00000020: d6e9 c13e 4177 023f c2d7 0bc0 a9d3 22c0
00000030: 9e32 c5be e60b 2e3f 951f 5c3f 8e71 733f
00000040: dac9 b3be 6900 b3be d2eb 99bf 90ab 65bf
00000050: 0dac 683e a74a 68bf ab15 ce3f 0e3a c4bd
00000060: c7df 1b3e 55fd 42bf aa48 cfbf f819 c4bf
00000070: 4932 293f d704 82be a828 853e 76d9 b63e
00000080: 8a47 37bf 4224 20bf dee8 c1be d8c5 0f3f
00000090: 4c18 cdbf f2a6 983e 242c 103f f1f7 e4be
000000a0: 2f23 debf 9b73 aebd ae94 1e3f 89c5 773f
000000b0: 45f8 953e e022 8ebe 1702 9a3f c208 493f
000000c0: e23e 583f 6660 883f 573d 19bf 7200 a63e
000000d0: f5d1 933e 2014 82bf db86 063f 614e 5b3e
000000e0: 3dd3 b93e e23f 67bf 0b94 51bf eb34 623d
000000f0: 690d c43e 978f fabf 334e 01c0 ff44 41bf
00000100: f3e9 a0bd 5cdb 343f d831 7e3e d4c2 2ac0
00000110: fa13 7d3e d2da 2cc0 156d 77bd 2c4c 533f
00000120: 835f 2b3e d33c 713f 40d9 2dbf d9b4 193f
00000130: 47d3 61bd b80f 973e 03cf b1be 8899 75bf
00000140: 6950 da3e 605a 6a3f f1d0 bbbc d4f5 72bf
00000150: 512a 2d3f cf25 26c0 b521 323e 0379 453f
00000160: ce04 703e 4768 353e 40dc 15bf 702b 2e3f
00000170: 9f1b 81bf 479c 283e f5c5 8b3e 9b01 5b3e
00000180: 53ee e2be e77c fbbf f556 40bf 2ceb 443f
00000190: 3155 443e 9ad4 903f 5091 22c0 7a70 c7be
000001a0: 4441 c3bf 3c74 d1bf 1a99 1d3f bec0 803f
000001b0: 20c5 8e3f 26c5 20c0 eb23 4abf 193b d73e
000001c0: 0016 bc3f bb98 73c0 b29d 37bf 1213 513f
000001d0: 6944 a23f dac3 093f 58ac 3e3c 1ab3 7cbf
000001e0: 2f85 8dbf 9a57 41c0 6872 093f 9a5e e53e
000001f0: 6800 d7be a4a1 d43f d54b de3e c9b6 dcbf
00000200: d4b9 1b3f e560 ac3e 78c0 39c0 bc35 e03c
00000210: d7aa 953e f02a 86bd b721 cabf 1849 663f
00000220: 8627 c8bd 5300 c5bf ef82 b23f d436 c2bf
00000230: 3830 89bf 9ae0 6c3e d92c 5f3f fab2 273f
00000240: bde9 323d 8fcb 763f dd18 0cbf da14 28bf
00000250: 8f61 81bf c1d3 22c0 529e 6cbe f3d8 c83e
00000260: 0552 40bf fd17 403f 6918 cf3e 5b78 513f
00000270: 9694 80be acbf 71be ed08 573f 1a41 733f
00000280: 2e4f f0bd f47a 87be 0ee7 62bf ef1a 183e
00000290: a041 01be 3364 d9be 6339 11c0 9ec3 03bd
000002a0: 43b5 94be 35f8 66c0 b2a2 88bd 7afc 1a3f
000002b0: 35bc 89bd 95e7 363f 0cca 80bf 3ed1 193e
000002c0: 32e3 8c3f 42da a43e a735 d93f f70b dc3e
000002d0: a952 34bf 5799 6dbf 5a37 a3bf 8089 47bf
000002e0: aca7 2e3f b41a 153f 1846 813e 86a9 1bbf
000002f0: 636b c43f 3100 4e3f ae5d 0b3d 7647 34be
00000300: 901f 06bf 37d4 993e 6001 d13e d4b0 f83e
00000310: cec6 5e3e 2470 9bbf 6d6f 8dbe a6c8 b83e
00000320: 3e89 07c0 cb79 9e3f d5c6 853d 4a86 3b3f
00000330: 8be5 ae3e bf0b 813f 8465 87bf 59ab 5fc0
00000340: a0ce 4dbf 68ac 89bf 5d78 2abf bfa8 de3e
00000350: b3fa 973f ae8f 2bbe 739b 25bf abbd cbbe
00000360: 8a0d ce3e 9fd3 22c0 a0d0 aabf 701f 373f
00000370: 7398 5c3f ab96 acbf 9fb6 a63f bc62 4d3f
00000380: c439 17bf 8453 d8bf dc22 f7bd a0c2 9c3d
00000390: 040b 703f 149e 453f 9f3a 423e d745 66bf
000003a0: 4ab5 29bf f34a a2bf 8864 c23e f3a9 ecbe
000003b0: d38c 41be 1667 763e a23c 81bf 1aad a33f
000003c0: 087c 863e f45f 70be ccd4 5b3f 17c5 79bf
000003d0: 278c c3be f41f 343f 5dc4 4c3f 87cf 65bf
000003e0: e397 b2bf 2295 813f 931a ca3e 3422 38c0
000003f0: fb7e 86bf 2349 3f3c 9312 2e3f 1bee eebe

fc1.bias f4 [128]
0.09890036 -0.8913188 -1.2055993 -0.5708066 -0.16208199 -0.57033044 0.16564785 -0.51336884
-0.33960024 -1.1677576 -0.9513363 0.28579262 0.3373711 -0.54829574 -1.0482968 -0.57583416
-0.3725078 -0.27676976 -0.22992319 0.53718245 -0.45045206 -1.1022062 -0.00049987563 0.61172605
0.027209517 0.085082635 -0.12533046 -0.8986152 -0.872999 -0.46239576 -0.7013912 -0.8635237
-0.038882688 -1.0532339 0.3853892 0.47117823 -0.9168615 -0.23326974 -0.2678543 -0.60768354
-1.3305453 -0.77154696 0.060572576 -0.24556547 -1.6857319 -1.0163413 -0.18898472 -0.16989408
-0.43577605 -0.42375842 -0.5932229 -0.9199078 0.0076001 -0.039702643 0.4080473 -0.3271347
-0.5826443 0.31101736 -0.32130373 -0.6399413 -0.93000454 -0.39075047 -0.33387214 -0.73276454
-0.56749433 -1.1062044 -0.82712835 -0.42039517 0.39375982 0.1435078 0.39691126 -0.13107114
-0.09349021 -0.92534006 -0.5218292 -0.67842084 -0.87327063 0.034379978 0.1594661 -0.5168272
0.051320843 -0.5183704 -0.32295877 -0.9032395 0.43309122 -0.08352208 -0.88761234 -0.2692668
0.1378633 -0.5486895 -0.9645411 -0.069756635 -0.35078844 -0.33660185 -0.32990086 -0.14842355
0.090766296 -0.3191888 -0.30425286 -0.946469 -0.21882138 -0.51100636 0.005417581 -1.1031586
-0.73599654 0.46144333 -0.6153175 -0.7227479 0.13780177 0.14063346 -0.40638784 -0.8568868
0.23623589 -0.38607168 -1.2907977 -0.7458634 -0.13408878 -0.30763784 0.026188072 -0.51308095
-0.22316778 -0.04588163 -0.35812122 0.08272664 -0.122480124 -0.40779224 -0.4639229 -0.43105024
00000000: 468c ca3d 782d 64bf 1451 9abf 6220 12bf
00000010: d2f8 25be 2d01 12bf 979f 293e 246c 03bf
00000020: 15e0 adbe 1579 95bf c78a 73bf 6953 923e
00000030: e8bb ac3e 1c5d 0cbf 972e 86bf de69 13bf
00000040: 58b9 bebe c4b4 8dbe fc70 6bbe ca84 093f
00000050: a7a1 e6be 1815 8dbf 160a 03ba 149a 1c3f
00000060: 7ee6 de3c ce3f ae3d a156 00be a50b 66bf
00000070: dd7c 5fbf 23bf ecbe 608e 33bf e40f 5dbf
00000080: 7443 1fbd 5ed0 86bf bc51 c53e 463e f13e
00000090: 6fb7 6abf 43de 6ebe 3324 89be 2691 1bbf
000000a0: 4f4f aabf 1a84 45bf f31a 783d 8475 7bbe
000000b0: 10c6 d7bf 7917 82bf 3685 41be b7f8 2dbe
000000c0: 0a1e dfbe ddf6 d8be 75dd 17bf 147f 6bbf
000000d0: 420a f93b 3d9f 22bd 93eb d03e 337e a7be
000000e0: 2d28 15bf ab3d 9f3e ec81 a4be 31d3 23bf
000000f0: c714 6ebf 7210 c8be 4af1 aabe 7596 3bbf
00000100: 4f47 11bf 1b98 8dbf afbe 53bf 093e d7be
00000110: e39a c93e b5f3 123e f437 cb3e 8337 06be
00000120: cc77 bfbd 16e3 6cbf 9996 05bf fdac 2dbf
00000130: aa8e 5fbf 05d2 0c3d 154b 233e ca4e 04bf
00000140: ce35 523d ecb3 04bf da5a a5be b43a 67bf
00000150: 22be dd3e a00d abbd 903a 63bf 57dd 89be
00000160: 092c 0d3e ea76 0cbf 2aec 76bf 91dc 8ebd
00000170: 8b9a b3be 1457 acbe c4e8 a8be 58fc 17be
00000180: aee3 b93d b76c a3be 08c7 9bbe cb4b 72bf
00000190: b612 60be 50d1 02bf f785 b13b 4d34 8dbf
000001a0: 456a 3cbf 4d42 ec3e 7385 1dbf 0206 39bf
000001b0: e81b 0d3e 3802 103e 1112 d0be ef5c 5bbf
000001c0: d2e7 713e 30ab c5be dc38 a5bf e7f0 3ebf
000001d0: 924e 09be b582 9dbe 5e88 d63c 4659 03bf
000001e0: 1886 64be 60ee 3bbd aa5b b7be 966c a93d
000001f0: dcd6 fabd 25ca d0be 4d87 edbe 9eb2 dcbe

fc2.weight f4 [64, 128]
-1.1128839 0.21165872 1.7751706 -0.17363639 -2.3031638 -0.98644364 -0.08519217 1.311415
0.68732965 1.3218875 0.3813143 -0.010253571 0.057137206 -2.3039405 -0.42246002 0.438091
-1.0677536 0.077213824 -2.0791306 -2.847793 -1.8653505 -0.41765314 -2.720833 -1.253182
-2.5475059 -4.072586 -1.0752597 0.60540473 -0.044322163 1.3592591 0.12545432 -4.452037
-0.3476839 0.033150967 -1.5331188 -3.5994406 -0.4947803 -1.9805532 -2.3051593 0.5725837
-2.161696 -0.7841592 -2.134545 -1.1950512 -3.2122006 -0.5896185 -1.5243266 -1.443318
0.036438603 0.032264445 -0.57498264 0.106425546 -1.1033303 -1.9154044 0.7945115 -1.6839911
-0.45662263 -1.7267017 -1.4083776 -2.1244206 -0.8372525 0.13709967 0.068913855 0.051695667
0.54117495 -0.3378189 -1.4841629 -0.6762461 -1.0179287 -0.5918008 -1.3307391 -0.42218095
0.24690706 -1.3807629 -0.37855256 -2.354909 -2.937791 -4.343281 -1.6186318 -1.3652045
-1.8187034 0.567259 0.555904 -1.1289554 -0.24842381 -2.3520515 -0.04835641 -0.06590362
-0.47611737 0.4706716 -1.4878608 -0.22561221 -1.1403543 -0.089283824 -0.4974326 -0.4014717
-0.7293233 0.82885695 -0.20894739 0.035188258 -0.3250105 -1.4049509 -0.5087633 -0.33298126
-0.27071705 0.7509486 -0.66109264 -1.0551081 -4.2209163 -0.78481877 -3.7027507 -0.15114745
-0.616902 -1.094287 0.44252515 -0.7546811 0.0296818 -0.15609992 -2.9484386 -0.08252963
-1.031882 -0.10016095 -0.77318203 -0.9332223 0.051471937 0.6005417 -1.49646 0.38113603
1.3011017 -0.046436574 -2.9607577 -1.8019116 -3.073124 -2.076979 -0.48008788 2.3365843
-3.3245637 -6.1585636 -1.0406673 0.8431173 0.6056468 0.5196783 0.028111894 0.60620856
-1.4569145 -0.111794166 1.2276413 2.4264448 -0.86070055 0.8388074 -0.90223795 -1.0676589
-2.0053039 -0.71036834 -1.658613 1.6216067 -2.0779505 -0.8076002 1.0058708 -2.1336281
-2.091716 -0.8396447 0.59412897 -1.0607731 -0.21024002 -4.9268117 0.34380054 -0.110354856
-2.9485335 -0.38452747 -1.5408883 -0.08979979 -9.254291 -0.9180012 -1.6403224 0.4985781
0.002037423 0.34037536 -2.3854558 -0.3159932 1.7192748 2.6038783 -0.9080921 -0.77672046
-0.37831512 1.7548769 -1.0407174 0.02273211 -1.4561694 -0.1711119 1.7268435 0.87380254
-0.1755513 -0.34308523 0.5390169 -1.4560972 -0.032281853 -7.5690813 1.1176904 1.5863048
0.54620934 -0.028559748 -0.36002266 -4.6830034 -1.754465 -2.4579022 -0.8182036 0.8119135
-5.108556 -0.7887947 0.12274283 -2.6240892 0.4362329 -1.0061 -0.4839393 0.07190501
-3.9595876 0.16899197 -1.7973962 -0.30089128 0.11977798 0.21479353 0.052542906 0.42252994
2.8934772 -0.85403854 0.021041024 -0.58171254 -0.44996417 1.3865379 0.82755107 1.4025694
0.8782414 0.4750884 0.066108525 -0.052587688 -3.409151 2.2639604 -6.126681 -0.14090261
0.42285335 1.0297732 -0.48529762 -0.73863995 0.09109407 1.3930829 -5.6923547 -1.2681834
0.88957673 -0.04647919 0.94135034 -0.25649017 2.1233468 -0.7828805 -2.899623 2.5719216
00000000: fb72 8ebf 10bd 583e ca38 e33f bdcd 31be
00000010: 0967 13c0 9287 7cbf 3c79 aebd 72dc a73f
00000020: d6f4 2f3f 9c33 a93f a13b c33e 98fe 27bc
00000030: b408 6a3d c373 13c0 ae4c d8be 774d e03e
00000040: 26ac 88bf 4822 9e3d 7a10 05c0 3e42 36c0
00000050: cec3 eebf a2d6 d5be 2122 2ec0 4568 a0bf
00000060: 560a 23c0 a052 82c0 1ca2 89bf cefb 1a3f
00000070: 288b 35bd 34fc ad3f 1977 003e 1677 8ec0
00000080: a003 b2be 4fc9 073d 3d3d c4bf 3c5d 66c0
00000090: d853 fdbe c482 fdbf bb87 13c0 d894 123f
000000a0: 3a59 0ac0 a8be 48bf 639c 08c0 70f7 98bf
000000b0: b294 4dc0 3df1 16bf 221d c3bf a5be b8bf
000000c0: a540 153d b927 043d 1032 13bf a3f5 d93d
000000d0: ed39 8dbf f92b f5bf 1b65 4b3f 058d d7bf
000000e0: 71ca e9be 9004 ddbf b845 b4bf 82f6 07c0
000000f0: 2e56 56bf db63 0c3e b522 8d3d d6be 533d
00000100: 718a 0a3f 99f6 acbe 0df9 bdbf 771e 2dbf
00000110: 7d4b 82bf 4280 17bf a955 aabf 1a28 d8be
00000120: 34d5 7c3e d7bc b0bf a4d1 c1be d4b6 16c0
00000130: c504 3cc0 28fc 8ac0 542f cfbf 05bf aebf
00000140: 46cb e8bf e337 113f b94f 0e3f 9c81 90bf
00000150: d062 7ebe 0388 16c0 5f11 46bd 7af8 86bd
00000160: a8c5 f3be defb f03e 3972 bebf e306 67be
00000170: 21f7 91bf 70da b6bd 7caf febe b38d cdbe
00000180: efb4 3abf f82f 543f 4ef6 55be 9021 103d
00000190: c767 a6be 6ed5 b3bf 503e 02bf 857c aabe
000001a0: 6d9b 8abe 2b3e 403f 5e3d 29bf c80d 87bf
000001b0: bf11 87c0 e2e9 48bf def9 6cc0 66c6 1abe
000001c0: 4aed 1dbf 9911 8cbf a892 e23e c832 41bf
000001d0: 3f27 f33c a8d8 1fbe 38b3 3cc0 4b05 a9bd
000001e0: b614 84bf 2f21 cdbd 42ef 45bf a8e7 6ebf
000001f0: 3dd4 523d 1abd 193f 008c bfbf 4324 c33e
00000200: 808a a63f 4734 3ebd 0e7d 3dc0 0aa5 e6bf
00000210: 10ae 44c0 39ed 04c0 14ce f5be 998a 1540
00000220: a7c5 54c0 f412 c5c0 9634 85bf 89d6 573f
00000230: ab0b 1b3f a309 053f ea4a e63c 7c30 1b3f
00000240: 2d7c babf 57f4 e4bd 5a23 9d3f df4a 1b40
00000250: df56 5cbf 15bc 563f 11f9 66bf 0ca9 88bf
00000260: e656 00c0 b3da 35bf 6e4d d4bf cf90 cf3f
00000270: 24fd 04c0 e3be 4ebf 60c0 803f 5d8d 08c0
00000280: adde 05c0 f4f2 56bf d618 183f 6ac7 87bf
00000290: 2949 57be 71a8 9dc0 a006 b03e ba01 e2bd
000002a0: c6b4 3cc0 c9e0 c4be d43b c5bf f4e8 b7bd
000002b0: 9311 14c1 2002 6bbf 16f6 d1bf a145 ff3e
000002c0: 4986 053b ae45 ae3e 4fab 18c0 dcc9 a1be
000002d0: 3211 dc3f f1a5 2640 b978 68bf 27d7 46bf
000002e0: 85b2 c1be ce9f e03f 3a36 85bf b138 ba3c
000002f0: c263 babf f537 2fbe 3509 dd3f 86b1 5f3f
00000300: b8c3 33be dea8 afbe 03fd 093f 6561 babf
00000310: fa39 04bd ea35 f2c0 7b10 8f3f 090c cb3f
00000320: 60d4 0b3f 22f6 e9bc e454 b8be 2adb 95c0
00000330: 4f92 e0bf 454e 1dc0 cb75 51bf 90d9 4f3f
00000340: 4a79 a3c0 73ee 49bf 9860 fb3d 14f1 27c0
00000350: eb59 df3e e3c7 80bf e4c6 f7be ef42 933d
00000360: e269 7dc0 3b0c 2d3e 1411 e6bf 6c0e 9abe
00000370: 284e f53d d6f2 5b3e 3b37 573d d855 d83e
00000380: bb2e 3940 45a2 5abf 3a5e ac3c 1deb 14bf
00000390: b461 e6be 137a b13f 63da 533f 6587 b33f
000003a0: 6ed4 603f c93e f33e e863 873d 3066 57bd
000003b0: 882f 5ac0 bae4 1040 c50d c4c0 c648 10be
000003c0: 3c80 d83e 9ccf 833f ee78 f8be 8217 3dbf
000003d0: 878f ba3d 8a50 b23f c527 b6c0 d553 a2bf
000003e0: 4dbb 633f f760 3ebd 56fc 703f ae52 83be
000003f0: eae4 0740 db6a 48bf 6c93 39c0 5d9a 2440

fc2.bias f4 [64]
0.4452437 1.4028445 0.26542893 0.028675701 0.42314777 -0.7627166 -0.06480367 -0.48613644
-1.1065092 -1.5612577 -0.34413663 0.5241133 -0.54715335 -0.3721016 -0.7809314 -0.65750337
-0.6627257 -0.2024265 0.6282336 -0.42666638 0.13955106 0.13393213 -0.39761144 -1.1477512
0.036591046 1.5401232 -0.56742036 1.4522492 0.022226244 0.70056605 0.54869837 -0.41577744
-0.5825803 -1.1242996 -0.31932274 -0.04568 -0.13149203 -0.99750805 1.1898146 0.028859144
-0.26223734 -0.049253624 -0.112801015 -0.26989406 -0.5205741 -0.35068813 -0.5623709 0.40925533
-0.4474044 -0.40662265 -0.00085847033 0.19359948 1.2572979 -1.0566715 -0.3593514 -0.20434076
-0.42122033 -0.89429575 -0.02674499 0.3486626 -0.29176313 -0.37663007 1.1921241 0.4593307
00000000: fbf6 e33e 6990 b33f 4de6 873e 4ee9 ea3c
00000010: d3a6 d83e 6541 43bf c9b7 84bd e0e6 f8be
00000020: 18a2 8dbf 4bd7 c7bf ad32 b0be 4a2c 063f
00000030: 3e12 0cbf 1a84 bebe 1feb 47bf 2452 28bf
00000040: 64a8 29bf e448 4fbe ebd3 203f 0474 dabe
00000050: 79e6 0e3e 8125 093e ba93 cbbe 83e9 92bf
00000060: 7ee0 153d c222 c53f 7642 11bf 4de3 b93f
00000070: d013 b63c 4c58 333f 7f77 0c3f c8e0 d4be
00000080: fc23 15bf 0de9 8fbf 457e a3be f41a 3bbd
00000090: d9a5 06be b05c 7fbf d84b 983f 036a ec3c
000000a0: f943 86be 2bbe 49bd 3804 e7bd 8e2f 8abe
000000b0: 5844 05bf 658d b3be 8af7 0fbf ea89 d13e
000000c0: 3112 e5be d830 d0be f80a 61ba f13e 463e
000000d0: 23ef a03f 0341 87bf e8fc b7be b43e 51be
000000e0: 31aa d7be 91f0 64bf 4f18 dbbc e883 b23e
000000f0: fa61 95be a8d5 c0be 8697 983f 652d eb3e

fc3.weight f4 [4, 64]
-0.6023087 -0.5988303 0.4125117 0.006035736 -1.4918568 0.21952377 0.024369791 2.2150733
-1.1793102 -3.4618816 -0.07847695 -2.7152653 0.056516122 0.5820775 -0.45444542 -0.54066056
0.36985618 0.3345681 0.5090344 0.073646896 0.058678154 -0.186414 -0.17013869 0.3182689
0.66344684 -1.4028811 0.40854317 -0.16663331 -0.06824726 -0.89181197 -0.34347245 -1.9784096
0.47818363 0.60318744 0.047741655 -0.08043559 -0.08472856 0.10703562 -0.8664782 0.007919135
0.28136584 -0.10057448 -0.07389879 -0.69893664 -1.8798118 -1.9102433 -1.194909 -0.7162798
-2.8862529 0.23948395 1.042847 -2.2705302 -0.2725337 0.5085465 -2.0549572 -1.8829255
0.1806955 -0.17404462 0.0921222 0.12479903 0.1944066 0.3551062 -0.56778157 -0.82786465
-2.1068058 -0.7928614 0.5370633 -0.036773954 -1.8943038 0.24366266 0.035499677 -1.4323549
0.22076043 -1.0389638 -0.07239067 -0.08358453 -0.40533376 -3.8054028 -1.7238183 0.25602964
-4.096302 -3.2738757 -1.5580636 -0.8417927 0.1024263 -1.2105558 -0.75349224 -1.1036178
-1.8931105 -0.35573143 0.22497071 -0.1458372 0.02728273 -1.3454105 -0.19317855 0.8569745
0.11630718 0.71275026 -1.7281592 -0.058392767 0.005063533 0.11372095 -0.49868494 0.014567556
-2.5500834 0.074149534 -0.00051510334 0.49231604 0.2983011 -0.1619021 -0.9027175 -1.3008612
0.024013411 0.14856827 -0.5022622 -1.0923774 -2.1411703 0.25179318 0.040917527 0.52873707
0.2564323 -0.1159016 -0.11583231 -0.73134255 0.102935776 -0.09608158 -0.47178185 -0.08112748
-0.4754881 -0.3274715 0.039676204 -0.016955197 -0.5382679 -2.3880498 0.002757296 0.4271358
-2.862811 0.84454536 0.21986325 -0.24445997 0.15459329 -0.5064228 -2.1975842 0.009179094
0.4562319 0.39921486 0.24654263 0.15879337 -0.056833327 -0.27582812 0.53347147 -0.7501409
0.98422086 -1.0505878 0.20240062 -2.238078 0.059858214 0.07797814 -0.18979102 -1.1529347
0.417043 1.0810621 -0.013733053 0.09053967 0.05679891 0.3884673 -0.09343984 -0.1022872
-3.0158162 -0.110909656 -0.08172319 0.3986397 -1.7247269 0.5606164 0.43037468 -0.28947058
-0.42349845 -0.17487004 0.97989035 0.33337817 -0.28013855 0.39512712 0.4028089 -0.4149458
0.2576475 -0.9411555 -0.02204825 -1.9314682 0.16844088 -3.684754 0.19248794 -0.56620735
-0.75244427 -3.316812 -2.3410656 0.09558708 0.6962471 0.35158795 0.044999465 0.7998735
0.48742032 1.4452121 -0.5824273 -0.14913969 -0.8487046 0.4744834 0.42517442 0.23917826
-0.4282437 -1.4442225 -0.36258355 -1.0389084 -2.374506 -3.125815 -0.289305 -0.42101565
0.23163086 -0.49162206 -0.9012408 -0.266877 0.024379274 -0.5366968 -2.850658 1.0079806
0.16142337 1.4460381 0.44541937 0.036106683 0.03252885 0.30975038 -0.44480845 0.052389055
-2.2712052 -0.055332858 0.03418506 -0.99952006 -0.85528976 0.6096883 -0.69527155 -0.81885266
-0.0684343 0.14808317 -1.1359164 -0.0612028 -0.24193026 0.30929664 0.22101931 -0.19498967
0.2555784 -0.78223825 0.0019534528 0.20163083 -3.9196117 -0.14840339 0.060676835 -1.2578593
00000000: e730 1abf f14c 19bf bc34 d33e 6cc7 c53b
00000010: 2af5 bebf d7ca 603e 28a3 c73c c3c3 0d40
00000020: a3f3 96bf 788f 5dc0 86b8 a0bd e8c6 2dc0
00000030: 737d 673d 0803 153f 12ad e8be bb68 0abf
00000040: ca5d bd3e 834c ab3e 1450 023f 2fd4 963d
00000050: 8158 703d 50e3 3ebe d638 2ebe 24f4 a23e
00000060: a7d7 293f 9c91 b3bf 922c d13e eca1 2abe
00000070: 38c5 8bbd ca4d 64bf 9fdb afbe 873c fdbf
00000080: 7cd4 f43e 7e6a 1a3f c18c 433d 6abb a4bd
00000090: 2b86 adbd 7e35 db3d 84d1 5dbf 42bf 013c
000000a0: 2f0f 903e fef9 cdbd 4058 97bd 83ed 32bf
000000b0: ac9d f0bf da82 f4bf c7f2 98bf 1d5e 37bf
000000c0: 5eb8 38c0 483b 753e 037c 853f 5e50 11c0
000000d0: 8a89 8bbe 1a30 023f 6b84 03c0 b403 f1bf
000000e0: 3e08 393e c138 32be 90aa bc3d a296 ff3d
000000f0: 8612 473e 7bd0 b53e 225a 11bf f0ee 53bf
00000100: e8d5 06c0 f7f8 4abf fb7c 093f 49a0 16bd
00000110: 8c78 f2bf b482 793e 1c68 113d 6857 b7bf
00000120: 060f 623e c4fc 84bf 8f41 94bd 5e2e abbd
00000130: e887 cfbe b88b 73c0 14a6 dcbf 5116 833e
00000140: e814 83c0 2e87 51c0 a16e c7bf ba7f 57bf
00000150: e1c4 d13d 7ef3 9abf dee4 40bf 5943 8dbf
00000160: 7251 f2bf 6e22 b6be b95e 663e 5956 15be
00000170: 0880 df3c 6936 acbf 99d0 45be ae62 5b3f
00000180: 7532 ee3d cd76 363f 5234 ddbf 412d 6fbd
00000190: feeb a53b 88e6 e83d a253 ffbe c2ac 6e3c
000001a0: 9134 23c0 b6db 973d 0008 07ba d910 fc3e
000001b0: ecba 983e aac9 25be 7e18 67bf 9f82 a6bf
000001c0: c6b7 c43c 4822 183e 4194 00bf 06d3 8bbf
000001d0: ef08 09c0 09eb 803e 2399 273d 505b 073f
000001e0: 184b 833e d15d edbd 7d39 edbd 4439 3bbf
000001f0: fecf d23d 6bc6 c4bd 648d f1be 2a26 a6bd
00000200: 2d73 f3be 58aa a7be 8483 223d a0e5 8abc
00000210: edcb 09bf cfd5 18c0 c0b3 343b 8bb1 da3e
00000220: 4c38 37c0 2034 583f d523 613e b753 7abe
00000230: b44d 1e3e eda4 01bf 38a5 0cc0 e963 163c
00000240: 3a97 e93e e465 cc3e ac75 7c3e bb9a 223e
00000250: 10ca 68bd 5839 8dbe 9691 083f 3c09 40bf
00000260: e6f5 7b3f a979 86bf 1c42 4f3e ac3c 0fc0
00000270: e32d 753d 01b3 9f3d 9458 42be 5d93 93bf
00000280: a986 d53e 3e60 8a3f 9900 61bc dd6c b93d
00000290: f9a5 683d 30e5 c63e 635d bfbd f47b d1bd
000002a0: 2203 41c0 9a24 e3bd 7d5e a7bd 811a cc3e
000002b0: dac3 dcbf 8e84 0f3f 125a dc3e 7d35 94be
000002c0: cad4 d8be 2211 33be 18da 7a3f 8bb0 aa3e
000002d0: 526e 8fbe 1a4e ca3e f83c ce3e c773 d4be
000002e0: 60ea 833e 91ef 70bf 889e b4bc 5a3a f7bf
000002f0: c47b 2c3e 02d3 6bc0 8f1b 453e f7f2 10bf
00000300: 30a0 40bf a646 54c0 05d4 15c0 29c3 c33d
00000310: 403d 323f 5603 b43e 5c51 383d 82c4 4c3f
00000320: 288f f93e b6fc b83f f519 15bf 13b8 18be
00000330: b444 59bf 7def f23e 76b0 d93e 25eb 743e
00000340: c242 dbbe 48dc b8bf 8da4 b9be f3fa 84bf
00000350: e8f7 17c0 5a0d 48c0 c91f 94be 5d8f d7be
00000360: a430 6d3e e3b5 fbbe b8b7 66bf 1aa4 88be
00000370: 0bb7 c73c f664 09bf 2e71 36c0 8205 813f
00000380: 2b4c 253e c717 b93f 020e e43e 9ae4 133d
00000390: f93c 053d 9a97 9e3e efbd e3be e895 563d
000003a0: 6d5b 11c0 b5a4 62bd a205 0c3d 8ce0 7fbf
000003b0: 45f4 5abf 8814 1c3f 51fd 31bf 54a0 51bf
000003c0: 4827 8cbd 1da3 173e b565 91bf caaf 7abd
000003d0: 91bc 77be 215c 9e3e e352 623e 5fab 47be
000003e0: 2cdb 823e c440 48bf 8005 003b 5078 4e3e
000003f0: ebda 7ac0 0ff7 17be 4688 783d 8901 a1bf

fc3.bias f4 [4]
-1.314681 -1.1164775 -0.561504 -1.1969908
00000000: 7847 a8bf bce8 8ebf babe 0fbf ff36 99bf

fc1.weight f4 [128, 16]
0.657543 -0.11762438 0.9040687 -0.64185965 1.118946 -1.4263818 0.41663742 -2.2585742
0.37241054 0.50780445 -2.1810405 -2.5452735 -0.38196898 0.6749292 0.8585586 0.9475505
-0.35491493 -0.35362592 -1.2027452 -0.89714915 0.22486816 -0.9080243 1.6058614 -0.10084012
0.1499872 -0.7651892 -1.6194179 -1.5320494 0.657261 -0.25786418 0.25536355 0.35675508
-0.7149899 -0.6219021 -0.37809572 0.56333995 -1.605 0.3005573 0.5639991 -0.44526434
-1.7354445 -0.08516388 0.61963546 0.9688929 0.30128735 -0.28265327 1.1995846 0.7854335
0.83844286 1.0593394 -0.6028592 0.3176265 0.28222278 -1.0226996 0.5186741 0.20684715
0.36213428 -0.9088957 -0.8220952 0.05232088 0.37726128 -1.9575078 -2.0335639 -0.7613962
-0.0780864 0.70536524 0.25134403 -2.668133 0.25219804 -2.700844 -0.05966299 0.8251776
0.16216707 0.9452019 -0.6790913 0.5882659 -0.05844325 0.29387537 -0.35274372 -0.95798814
0.42975155 0.92073077 -0.018735012 -0.9563046 0.6724031 -2.5889401 0.17725837 0.77391434
0.23063403 0.18029857 -0.59486973 0.6922083 -1.0119705 0.16692138 0.27555358 0.21447474
-0.4565766 -1.9712579 -0.7608215 0.75860107 0.1742696 1.1154453 -2.553794 -0.39566386
-1.5254333 -1.6455106 0.6081626 0.99948126 1.0957128 -2.5113623 -0.7930786 0.411974
1.470534 -3.8032591 -0.7138986 0.82185507 1.2719445 0.53916675 0.014725288 -0.983402
-1.105118 -3.025638 0.5420794 0.4505056 -0.41457176 1.6623253 0.43706247 -1.7253807
0.6129662 0.34014392 -2.9027112 0.027728496 0.29591125 -0.061982784 -1.5785283 0.9027386
-0.095245585 -1.5350549 1.3953081 -1.5172914 -1.0694659 0.23323911 0.87208563 0.659468
0.044970326 0.9642779 -0.5561254 -0.6520793 -1.0059278 -2.5441554 -0.23040783 0.39354962
-0.7504169 0.7516621 0.41214722 0.80551773 -0.25348935 -0.2394136 0.8431765 0.9468998
-0.117338195 -0.2646106 -0.88633686 0.14854161 -0.12622601 -0.4245926 -2.2691154 -0.032168847
-0.2904433 -3.608886 -0.06671592 0.6054198 -0.067253105 0.7144726 -1.0061603 0.15021352
1.0959139 0.31349283 1.6972165 0.43525478 -0.6998771 -0.93198436 -1.2785628 -0.78438866
0.68009806 0.57972836 0.2508 -0.6091364 1.5308084 0.8036618 0.031706415 -0.17789164
-0.517139 0.30511516 0.41197994 0.4797138 0.21381022 -1.209849 -0.2730666 0.36323684
-2.1167285 1.234726 0.066421516 0.73709023 0.33233657 1.0159596 -1.0546356 -3.4946604
-0.8047388 -1.0719751 -0.662361 0.44041535 1.191919 -0.16391364 -0.6420263 -0.39302522
0.40202972 -2.544179 -1.3344704 0.7205498 0.8644661 -1.3434865 1.3071967 0.80320257
-0.59079164 -1.6882638 -0.11624357 0.08043374 0.94214046 0.776778 0.19415013 -0.8967205
-0.66292053 -1.2731285 0.38403323 -0.4603623 -0.18529691 0.24223506 -1.0107958 1.2840953
0.27334917 -0.22093275 0.85826683 -0.9764813 -0.38183895 0.71056193 0.81038564 -0.8866355
-1.3937093 1.0236324 0.39517656 -2.8770833 -1.0399404 0.014230267 0.6907623 -0.4673204
00000000: bd54 283f 0de5 f0bd 0c71 673f ea50 24bf
00000010: 9f39 8f3f ae93 b6bf 8051 d53e 7b8c 10c0
00000020: 98ac be3e 79ff 013f 2b96 0bc0 c3e5 22c0
00000030: 7091 c3be 29c8 2c3f 7fca 5b3f ab92 723f
00000040: 69b7 b5be 750e b5be 8ef3 99bf 91ab 65bf
00000050: d743 663e 4874 68bf de8c cd3f 4485 cebd
00000060: 3f96 193e 70e3 43bf 1649 cfbf 321a c4bf
00000070: 4242 283f c606 84be 03bf 823e 9aa8 b63e
00000080: 9409 37bf fa34 1fbf c395 c1be 0c37 103f
00000090: a470 cdbf a5e2 993e 3f62 103f b0f9 e3be
000000a0: 0c23 debf 666a aebd 6ea0 1e3f 5d09 783f
000000b0: 5642 9a3e eeb7 90be fd8b 993f 2b12 493f
000000c0: 31a4 563f 6f98 873f fb54 1abf f19f a23e
000000d0: 817f 903e d2e7 82bf d3c7 043f bdcf 533e
000000e0: aa69 b93e 63ad 68bf d574 52bf 6b4e 563d
000000f0: 6428 c13e 9e8f fabf e925 02c0 ddea 42bf
00000100: c3eb 9fbd d192 343f 2ab0 803e b1c2 2ac0
00000110: 1a20 813e a1da 2cc0 2e61 74bd d73e 533f
00000120: 200f 263e c0f8 713f edd8 2dbf 9898 163f
00000130: 3062 6fbd d576 963e d39a b4be b63e 75bf
00000140: 6508 dc3e 03b5 6b3f 2b7a 99bc 61d0 74bf
00000150: 9c22 2c3f 32b1 25c0 3883 353e 401f 463f
00000160: 542b 6c3e 30a0 383e 6249 18bf 9034 313f
00000170: 4088 81bf 70ed 2a3e 5c15 8d3e 449f 5b3e
00000180: 68c4 e9be 2e52 fcbf 33c5 42bf ae33 423f
00000190: bb73 323e e9c6 8e3f 5c71 23c0 7494 cabe
000001a0: 6641 c3bf 17a0 d2bf 8bb0 1b3f 01de 7f3f
000001b0: 5140 8c3f 29ba 20c0 3307 4bbf 42ee d23e
000001c0: 753a bc3f 9968 73c0 0fc2 36bf 1865 523f
000001d0: 14cf a23f d506 0a3f 5642 713c 3cc0 7bbf
000001e0: 8274 8dbf 0ea4 41c0 b7c5 0a3f aca8 e63e
000001f0: c042 d4be 13c7 d43f a7c6 df3e 46d9 dcbf
00000200: 5aeb 1c3f 5827 ae3e 05c6 39c0 df26 e33c
00000210: ae81 973e a9e1 7dbd 370d cabf e019 673f
00000220: 1e10 c3bd ae7c c4bf 7599 b23f 9b36 c2bf
00000230: 42e4 88bf 3cd6 6e3e 0141 5f3f e5d2 283f
00000240: ce32 383d ebda 763f 3c5e 0ebf abee 26bf
00000250: 3ec2 80bf 71d3 22c0 08f0 6bbe 567f c93e
00000260: 521b 40bf ed6c 403f f604 d33e 6936 4e3f
00000270: 5bc9 81be d728 75be 6ada 573f 0668 723f
00000280: 024f f0bd 0a7b 87be f9e6 62bf 4b1b 183e
00000290: 6441 01be 3464 d9be 3039 11c0 7bc3 03bd
000002a0: fcb4 94be fdf7 66c0 5ba2 88bd cbfc 1a3f
000002b0: ffbb 89bd ade7 363f dcc9 80bf 93d1 193e
000002c0: e846 8c3f 2282 a03e 643e d93f b7d9 de3e
000002d0: 252b 33bf 8796 6ebf f2a7 a3bf b2cd 48bf
000002e0: e81a 2e3f 1469 143f dc68 803e 5df0 1bbf
000002f0: 88f1 c33f c8bc 4d3f 96de 013d 3a29 36be
00000300: 3963 04bf 0e38 9c3e 09ef d23e 0c9d f53e
00000310: 11f1 5a3e 55dc 9abf 63cf 8bbe 2efa b93e
00000320: 7b78 07c0 800b 9e3f 0108 883d f2b1 3c3f
00000330: 0528 aa3e f70a 823f 4dfe 86bf 84a8 5fc0
00000340: 5d03 4ebf 7b36 89bf 7e90 29bf 1f7e e13e
00000350: cd90 983f fad8 27be d65b 24bf 9a3a c9be
00000360: d7d6 cd3e d4d3 22c0 edcf aabf f475 383f
00000370: a64d 5d3f 5ef7 abbf 3952 a73f af9e 4d3f
00000380: 1f3e 17bf 0719 d8bf 1c11 eebd 72ba a43d
00000390: 1e30 713f ecda 463f 4bcf 463e 7a8f 65bf
000003a0: 29b5 29bf e0f5 a2bf 01a0 c43e 9bb4 ebbe
000003b0: 79be 3dbe 780c 783e c261 81bf 3c5d a43f
000003c0: 6cf4 8b3e 323c 62be 60b7 5b3f aefa 79bf
000003d0: 6580 c3be 63e7 353f 6f75 4f3f 8bfa 62bf
000003e0: 1165 b2bf 6306 833f 9554 ca3e 2222 38c0
000003f0: c41c 85bf 1126 693c ccd5 303f 9f44 efbe

fc1.bias f4 [128]
0.095275566 -0.8953328 -1.2045702 -0.57690793 -0.1627391 -0.5670138 0.15502407 -0.5104626
-0.33659256 -1.1682975 -0.9513358 0.28211287 0.3397799 -0.5441749 -1.0439563 -0.5654983
-0.36713257 -0.27676997 -0.22800294 0.54132026 -0.45376235 -1.1051693 -0.004945705 0.6115644
0.021868788 0.08514163 -0.12732948 -0.9041835 -0.8733706 -0.45138916 -0.7100596 -0.86473423
-0.03541765 -1.0596673 0.37842074 0.46789807 -0.9168604 -0.23918518 -0.27535343 -0.60167384
-1.3332043 -0.7758082 0.06449152 -0.2454563 -1.6878747 -1.0120419 -0.1986303 -0.16805524
-0.43577445 -0.42084548 -0.5997468 -0.9124413 0.002985446 -0.038944066 0.40611914 -0.3220728
-0.5819045 0.31041962 -0.31651837 -0.6390671 -0.9282544 -0.3944074 -0.3304344 -0.7393467
-0.56799793 -1.0989856 -0.8272797 -0.4223841 0.38838485 0.14243579 0.39323515 -0.12842125
-0.09709898 -0.9253362 -0.5155869 -0.6754359 -0.8729323 0.027537316 0.16141936 -0.5180247
0.049419623 -0.5135204 -0.32660964 -0.9035788 0.4213814 -0.08033549 -0.89153296 -0.26926574
0.12206751 -0.5484221 -0.9714143 -0.07012462 -0.35521328 -0.3312284 -0.32916278 -0.13702261
0.09117843 -0.3169248 -0.3052854 -0.9480272 -0.2213648 -0.5064972 0.009824493 -1.0962563
-0.7445454 0.4666811 -0.61254567 -0.7188765 0.1339099 0.14213093 -0.41389182 -0.85685694
0.24078986 -0.38223296 -1.2805401 -0.74586046 -0.13841468 -0.3113827 0.020189285 -0.50899595
-0.2324759 -0.047675386 -0.35813168 0.079447575 -0.124366306 -0.40534702 -0.4678943 -0.4290474
00000000: d61f c33d 8834 65bf 5b2f 9abf 3db0 13bf
00000010: 14a5 26be d127 11bf a1be 1e3e adad 02bf
00000020: dc55 acbe c68a 95bf be8a 73bf 1971 903e
00000030: a2f7 ad3e 0c4f 0bbf 5ca0 85bf 7fc4 10bf
00000040: cdf8 bbbe cbb4 8dbe 9a79 69be f793 0a3f
00000050: 8a53 e8be 3076 8dbf 950f a2bb 7c8f 1c3f
00000060: 2c26 b33c bc5e ae3d a962 02be 9278 67bf
00000070: 3795 5fbf 7b1c e7be 77c6 35bf 395f 5dbf
00000080: 1912 11bd 2ea3 87bf 5dc0 c13e 5690 ef3e
00000090: 5db7 6abf f6ec 74be 20fb 8cbe 4c07 1abf
000000a0: 70a6 aabf 5e9b 46bf 2114 843d e558 7bbe
000000b0: 470c d8bf 978a 81bf be65 4bbe ac16 2cbe
000000c0: d41d dfbe 0f79 d7be 0289 19bf c195 69bf
000000d0: 79a7 433b d083 1fbd d9ee cf3e bae6 a4be
000000e0: b1f7 14bf 52ef 9e3e b20e a2be e799 23bf
000000f0: 15a2 6dbf c4ef c9be b32e a9be d345 3dbf
00000100: 5068 11bf 8fab 8cbf 9ac8 53bf bb42 d8be
00000110: 61da c63e b0da 113e 1e56 c93e dc80 03be
00000120: d4db c6bd d5e2 6cbf 81fd 03bf 5ee9 2cbf
00000130: 7e78 5fbf f095 e13c 1e4b 253e 449d 04bf
00000140: 3b6c 4a3d 1376 03bf 6139 a7be f150 67bf
00000150: 4ebf d73e ef86 a4bd 813b 64bf 33dd 89be
00000160: 88fe f93d 6465 0cbf 9cae 78bf 7f9d 8fbd
00000170: 84de b5be c596 a9be 0688 a8be a84f 0cbe
00000180: c2bb ba3d f843 a2be 5e4e 9cbe e9b1 72bf
00000190: 74ad 62be cda9 01bf e9f6 203c 2052 8cbf
000001a0: 879a 3ebf d3f0 ee3e cbcf 1cbf 4a08 38bf
000001b0: ad1f 093e c58a 113e a1e9 d3be fa5a 5bbf
000001c0: 9e91 763e 0ab4 c3be bde8 a3bf b6f0 3ebf
000001d0: 94bc 0dbe 8e6d 9fbe 0064 a53c 8f4d 02bf
000001e0: 2a0e 6ebe 4447 43bd 095d b7be 69b5 a23d
000001f0: c3b3 febd a589 cfbe d78f efbe 1aac dbbe

fc2.weight f4 [64, 128]
-1.0973895 0.21166001 1.7751652 -0.17363521 -2.3031616 -0.9864429 -0.08519188 1.3097173
0.68676627 1.3218833 0.3813166 -0.007883373 0.064873844 -2.3039246 -0.42521858 0.44494566
-1.0677527 0.077213794 -2.076707 -2.8425326 -1.865347 -0.41765165 -2.7208235 -1.253183
-2.5475168 -4.0725513 -1.0752628 0.6054079 -0.03129103 1.366068 0.12530337 -4.4520655
-0.3476817 0.03315389 -1.5331223 -3.5994444 -0.49478307 -1.980551 -2.3051405 0.5725896
-2.1617074 -0.7841565 -2.134528 -1.1950563 -3.2122045 -0.5898669 -1.5243248 -1.4423065
0.036438774 0.030193359 -0.5749857 0.106425315 -1.1029911 -1.9154031 0.79731244 -1.6839819
-0.45662415 -1.7266946 -1.4090942 -2.124419 -0.8372524 0.14203864 0.06682932 0.050012045
0.54117787 -0.3266597 -1.484163 -0.6762481 -1.0179232 -0.5918002 -1.3245225 -0.42102566
0.24674064 -1.3807609 -0.3761913 -2.3548985 -2.9378083 -4.3432517 -1.6186312 -1.3681724
-1.8196733 0.567525 0.5554169 -1.1294347 -0.2497841 -2.3509562 -0.048356365 -0.0659038
-0.4390998 0.47023708 -1.4878703 -0.225612 -1.1358271 -0.07980916 -0.49743137 -0.4031466
-0.72333586 0.82910186 -0.20251174 0.035188198 -0.3258516 -1.405307 -0.51053226 -0.3329802
-0.2730557 0.75891477 -0.65722805 -1.05459 -4.2208953 -0.7848181 -3.702775 -0.1509452
-0.61818653 -1.090895 0.44252765 -0.75467604 0.02998119 -0.1568313 -2.9484417 -0.082985476
-1.0318944 -0.10016086 -0.7762272 -0.9332219 0.051276375 0.6034438 -1.4954612 0.3867521
1.3054464 -0.039444406 -2.9599183 -1.8013426 -3.0846372 -2.0845952 -0.48686022 2.3426905
-3.3245714 -6.156655 -1.0406802 0.84725916 0.6040232 0.5246297 0.022536693 0.6075991
-1.4558082 -0.11179421 1.2274016 2.430179 -0.8717067 0.8415222 -0.91389006 -1.0646169
-2.0066311 -0.7173867 -1.6543107 1.6102803 -2.074538 -0.8078028 1.0129265 -2.131294
-2.091708 -0.8357144 0.5959721 -1.0554985 -0.21024142 -4.928389 0.34155747 -0.1075451
-2.9408536 -0.38450673 -1.5533528 -0.09154248 -9.239199 -0.9252223 -1.6557466 0.4974269
0.0020374446 0.34010607 -2.3813732 -0.31172797 1.7225126 2.5988593 -0.90728754 -0.77666694
-0.3778778 1.7529583 -1.0399755 0.019492075 -1.4561608 -0.1679312 1.728587 0.87689435
-0.17763568 -0.3471581 0.54234505 -1.4524298 -0.025999578 -7.5686374 1.1183817 1.5890785
0.54790604 -0.028559687 -0.36101332 -4.680888 -1.7524513 -2.452424 -0.8186669 0.8181354
-5.10959 -0.79065967 0.12391311 -2.6240969 0.43437955 -1.0022132 -0.477725 0.07190451
-3.9587214 0.168822 -1.7892889 -0.29805338 0.12391651 0.21324435 0.053932406 0.41418797
2.8916116 -0.8502945 0.017772635 -0.5783766 -0.44799113 1.3893052 0.83046615 1.3976809
0.8769532 0.47823808 0.065824695 -0.051809333 -3.4080122 2.253338 -6.1200266 -0.13966364
0.4276949 1.0346869 -0.48556432 -0.7386423 0.09254322 1.3963389 -5.6865153 -1.2681965
0.88369244 -0.038591143 0.94329304 -0.25655764 2.127079 -0.78373474 -2.8973198 2.5722888
00000000: 4277 8cbf 67bd 583e 9d38 e33f 6ecd 31be
00000010: 0067 13c0 8687 7cbf 1579 aebd d1a4 a73f
00000020: eacf 2f3f 7933 a93f ee3b c33e 4329 01bc
00000030: 94dc 843d 8073 13c0 40b6 d9be ebcf e33e
00000040: 1fac 88bf 4422 9e3d c4e8 04c0 0eec 35c0
00000050: b1c3 eebf 70d6 d5be f921 2ec0 4d68 a0bf
00000060: 840a 23c0 5752 82c0 36a2 89bf 03fc 1a3f
00000070: 062b 00bd 51db ae3f 874f 003e 5277 8ec0
00000080: 5603 b2be 60cc 073d 5a3d c4bf 4c5d 66c0
00000090: 3554 fdbe b282 fdbf 6c87 13c0 3b95 123f
000000a0: 6a59 0ac0 7bbe 48bf 1b9c 08c0 9bf7 98bf
000000b0: c294 4dc0 8401 17bf 131d c3bf 809d b8bf
000000c0: d340 153d 1058 f73c 4332 13bf 84f5 d93d
000000d0: d02e 8dbf ee2b f5bf ab1c 4c3f b88c d7bf
000000e0: a4ca e9be 5404 ddbf 335d b4bf 7bf6 07c0
000000f0: 2c56 56bf 9472 113e cfdd 883d 6ed9 4c3d
00000100: a28a 0a3f f13f a7be 0ef9 bdbf 981e 2dbf
00000110: 4f4b 82bf 3880 17bf f489 a9bf ad90 d7be
00000120: 94a9 7c3e c6bc b0bf 259c c0be a8b6 16c0
00000130: 0d05 3cc0 ebfb 8ac0 4f2f cfbf 4620 afbf
00000140: 0eeb e8bf 5249 113f cd2f 0e3f 5191 90bf
00000150: 67c7 7fbe 1176 16c0 5311 46bd 92f8 86bd
00000160: b0d1 e0be eac2 f03e 8972 bebf d506 67be
00000170: c862 91bf fc72 a3bd 53af febe 3b69 cebe
00000180: 8a2c 39bf 0540 543f 3d5f 4fbe 8021 103d
00000190: 05d6 a6be 1ae1 b3bf 3eb2 02bf 617c aabe
000001a0: f5cd 8bbe 3d48 423f 1940 28bf cefc 86bf
000001b0: 9311 87c0 d7e9 48bf 44fa 6cc0 6191 1abe
000001c0: 7941 1ebf 73a2 8bbf fc92 e23e 7332 41bf
000001d0: 1d9b f53c 6298 20be 45b3 3cc0 4af4 a9bd
000001e0: 1e15 84bf 2321 cdbd d3b6 46bf a1e7 6ebf
000001f0: 2d07 523d 4b7b 1a3f 466b bfbf 5f04 c63e
00000200: de18 a73f 7590 21bd 4d6f 3dc0 6592 e6bf
00000210: b26a 45c0 026a 05c0 be45 f9be a4ee 1540
00000220: c7c5 54c0 5103 c5c0 0235 85bf fae5 583f
00000230: 44a1 1a3f 224e 063f df9e b83c 9d8b 1b3f
00000240: ec57 babf 5df4 e4bd 7f1b 9d3f 0e88 1b40
00000250: 2c28 5fbf 006e 573f b3f4 69bf 5e45 88bf
00000260: a56c 00c0 a8a6 37bf 74c0 d3bf aa1d ce3f
00000270: 3bc5 04c0 2acc 4ebf 93a7 813f 1f67 08c0
00000280: 8bde 05c0 61f1 55bf a191 183f 931a 87bf
00000290: 8749 57be 5db5 9dc0 9fe0 ae3e 9b40 dcbd
000002a0: f236 3cc0 11de c4be 44d4 c6bf a07a bbbd
000002b0: c2d3 13c1 5edb 6cbf 81ef d3bf bdae fe3e
000002c0: a686 053b 6222 ae3e 6b68 18c0 cf9a 9fbe
000002d0: 4b7b dc3f b653 2640 ff43 68bf a5d3 46bf
000002e0: 3379 c1be f060 e03f eb1d 85bf d8ad 9f3c
000002f0: 7a63 babf 28f6 2bbe 5742 dd3f 267c 603f
00000300: 21e6 35be b5be b1be 20d7 0a3f 38e9 b9bf
00000310: 11fd d4bc 4732 f2c0 2227 8f3f ed66 cb3f
00000320: 9243 0c3f 01f6 e9bc bdd6 b8be d6c9 95c0
00000330: 5350 e0bf 84f4 1cc0 2794 51bf 5271 513f
00000340: c381 a3c0 ac68 4abf 28c6 fd3d 34f1 27c0
00000350: ff66 de3e 8648 80bf 5f98 f4be ac42 933d
00000360: b15b 7dc0 addf 2c3e 6b07 e5bf 749a 98be
00000370: f0c7 fd3d ba5c 5a3e 3ae8 5c3d 7210 d43e
00000380: 2a10 3940 e6ac 59bf eb97 913c 7d10 14bf
00000390: 185f e5be c1d4 b13f 6e99 543f 35e7 b23f
000003a0: 0180 603f 9fdb f43e 19cf 863d 0636 54bd
000003b0: df1c 5ac0 b136 1040 42d7 c3c0 fc03 0fbe
000003c0: d3fa da3e 9f70 843f e39b f8be a917 3dbf
000003d0: 4d87 bd3d 3cbb b23f eff7 b5c0 4354 a2bf
000003e0: ab39 623f bf11 1ebd a77b 713f 865b 83be
000003f0: 1022 0840 d7a2 48bf b06d 39c0 61a0 2440

fc2.bias f4 [64]
0.44525445 1.4038013 0.26627958 0.028675914 0.42312744 -0.75986606 -0.064803354 -0.48298025
-1.1054586 -1.5506141 -0.34413522 0.5221132 -0.5489003 -0.3627645 -0.7824023 -0.6609242
-0.6621166 -0.20213455 0.6213347 -0.42566228 0.13777621 0.13382605 -0.39760956 -1.1533629
0.03912884 1.5388108 -0.56581694 1.4507273 0.022226313 0.7021054 0.55135316 -0.4207511
-0.583473 -1.1247838 -0.30974978 -0.04567974 -0.1314917 -0.996224 1.1888603 0.028859198
-0.26323724 -0.049253415 -0.112800784 -0.2698916 -0.51393265 -0.35412443 -0.56212515 0.4092563
-0.44740334 -0.40544868 -0.0008584678 0.19635716 1.2456354 -1.0567341 -0.35798514 -0.20426682
-0.42579553 -0.8942941 -0.02674491 0.3406084 -0.29052678 -0.36942664 1.1889488 0.46637073
00000000: 64f8 e33e c3af b33f cc55 883e c0e9 ea3c
00000010: 29a4 d83e 9586 42bf 9fb7 84bd 3049 f7be
00000020: ab7f 8dbf 867a c6bf 7e32 b0be 36a9 053f
00000030: bb84 0cbf 45bc b9be 844b 48bf 5432 29bf
00000040: 7980 29bf 5cfc 4ebe ca0f 1f3f 68f0 d9be
00000050: 3515 0d3e b209 093e 7b93 cbbe 65a1 93bf
00000060: 9045 203d c1f7 c43f 61d9 10bf 6fb1 b93f
00000070: f513 b63c 2ebd 333f 7b25 0d3f b06c d7be
00000080: 7d5e 15bf eaf8 8fbf 8697 9ebe ae1a 3bbd
00000090: c3a5 06be 8908 7fbf 932c 983f 206a ec3c
000000a0: 08c7 86be f3bd 49bd 1904 e7bd 3b2f 8abe
000000b0: 1791 03bf cc4f b5be 6fe7 0fbf 0b8a d13e
000000c0: 0d12 e5be f896 cfbe cd0a 61ba da11 493e
000000d0: fb70 9f3f 1043 87bf d449 b7be 522b 51be
000000e0: df01 dabe 75f0 64bf 2418 dbbc 3964 ae3e
000000f0: edbf 94be 7d25 bdbe 792f 983f 25c8 ee3e

fc3.weight f4 [4, 64]
-0.5996435 -0.6023567 0.4099524 0.006035698 -1.492039 0.22111109 0.024369847 2.2158475
-1.1661769 -3.4678574 -0.078476675 -2.7152216 0.058295142 0.5826517 -0.4484741 -0.5294907
0.36190188 0.33474028 0.5090894 0.074427426 0.05373605 -0.18632104 -0.17013937 0.31302652
0.6641451 -1.39725 0.40612006 -0.16506107 -0.06824701 -0.8917095 -0.3469321 -1.9790453
0.4762458 0.5947297 0.04579944 -0.08043617 -0.08472846 0.11073791 -0.86587334 0.007919183
0.2792313 -0.10057437 -0.073898286 -0.6989396 -1.8701361 -1.9102542 -1.1924613 -0.7162846
-2.8862622 0.23899443 1.0428498 -2.2691848 -0.2762776 0.5071181 -2.052393 -1.8832637
0.18123785 -0.17404498 0.09212241 0.124794036 0.18673451 0.35849613 -0.5654914 -0.82787055
-2.1068234 -0.79137814 0.53870606 -0.03677368 -1.8996187 0.24277842 0.035499632 -1.4338048
0.22002567 -1.0405859 -0.07239029 -0.083345756 -0.40373677 -3.8254397 -1.7282966 0.259517
-4.096385 -3.2784207 -1.5510968 -0.8490311 0.10172952 -1.2107733 -0.7534899 -1.1039473
-1.8931228 -0.35830447 0.23088895 -0.14770691 0.02728284 -1.3454151 -0.18333521 0.85322595
0.10255127 0.712406 -1.736676 -0.058393046 0.005063536 0.12100604 -0.49862665 0.014567621
-2.5500917 0.07414937 -0.0005151005 0.49231842 0.30210465 -0.16878513 -0.9035551 -1.3008666
0.024013523 0.14889733 -0.50226647 -1.0946438 -2.1237166 0.25357655 0.04708558 0.52651596
0.2553296 -0.11590097 -0.11583168 -0.7274253 0.10770627 -0.09668078 -0.46532306 -0.07510217
-0.48397243 -0.3276096 0.034672815 -0.01695521 -0.5361938 -2.3880622 0.002757288 0.4296398
-2.8667097 0.8403496 0.21986313 -0.24664392 0.15645802 -0.5072998 -2.201616 0.0051050233
0.46289065 0.39431292 0.24466313 0.15385517 -0.06657182 -0.27582052 0.53347695 -0.7476234
0.984783 -1.0528218 0.20419674 -2.2372193 0.05985858 0.0792168 -0.19191392 -1.1529279
0.4177188 1.0876456 -0.013932599 0.09053917 0.056798995 0.38822266 -0.08915967 -0.102288
-3.0157957 -0.11090908 -0.08172289 0.39863774 -1.740244 0.55371237 0.4343504 -0.28947172
-0.4235018 -0.17619969 0.9798864 0.33027816 -0.28145355 0.39417967 0.40589088 -0.42077357
0.25420615 -0.9411553 -0.022048246 -1.9315478 0.16550764 -3.690974 0.19603531 -0.5631162
-0.75347257 -3.3171802 -2.3410463 0.09558695 0.69865245 0.3582892 0.044999503 0.7912532
0.49346852 1.4525083 -0.5824303 -0.14959589 -0.8437963 0.47523975 0.42543703 0.23703386
-0.42897433 -1.4474715 -0.36463112 -1.0396029 -2.36605 -3.125786 -0.2893078 -0.42190173
0.23163205 -0.49001276 -0.9039348 -0.26582983 0.024379347 -0.5381697 -2.8527927 1.00799
0.15778455 1.4532632 0.447629 0.036106482 0.03252908 0.3101516 -0.44717097 0.052389365
-2.2712133 -0.055333093 0.034185342 -0.9995261 -0.8586563 0.6088631 -0.696297 -0.8188583
-0.06843476 0.15308182 -1.1359285 -0.0615027 -0.24495752 0.30923942 0.2185251 -0.19076167
0.25988272 -0.78224313 0.0019534684 0.20085119 -3.919617 -0.15042184 0.058121294 -1.2580264
00000000: 3d82 19bf 0c34 1abf 48e5 d13e 1bc7 c53b
00000010: 22fb bebf f26a 623e 46a3 c73c 72d0 0d40
00000020: 4945 95bf 60f1 5dc0 61b8 a0bd 31c6 2dc0
00000030: e3c6 6e3d a928 153f 669e e5be b48c 07bf
00000040: 344b b93e 1463 ab3e af53 023f 686d 983d
00000050: 551a 5c3d f1ca 3ebe 0439 2ebe 0345 a03e
00000060: 6a05 2a3f 17d9 b2bf f8ee cf3e c505 29be
00000070: 17c5 8bbd 1347 64bf 16a1 b1be 5b51 fdbf
00000080: 7dd6 f33e 3540 183f 3298 3b3d b8bb a4bd
00000090: 1d86 adbd 8fca e23d e0a9 5dbf 76bf 013c
000000a0: 68f7 8e3e eff9 cdbd fc57 97bd b5ed 32bf
000000b0: 9f60 efbf 3683 f4bf 92a2 98bf 6d5e 37bf
000000c0: 85b8 38c0 f5ba 743e 1a7c 853f 533a 11c0
000000d0: 4274 8dbe 7ed2 013f 685a 03c0 c90e f1bf
000000e0: 6a96 393e d938 32be adaa bc3d 0494 ff3d
000000f0: 5537 3f3e ce8c b73e 0bc4 10bf 53ef 53bf
00000100: 32d6 06c0 c297 4abf a4e8 093f 00a0 16bd
00000110: b526 f3bf e89a 783e 1068 113d ea86 b7bf
00000120: 694e 613e eb31 85bf 5c41 94bd 2eb1 aabd
00000130: 96b6 cebe 01d4 74c0 d338 ddbf 6adf 843e
00000140: 9615 83c0 a5d1 51c0 578a c6bf 1a5a 59bf
00000150: 9157 d03d 9ffa 9abf b7e4 40bf 254e 8dbf
00000160: d951 f2bf af73 b7be 276e 6c3e 7b40 17be
00000170: 4380 df3c 9036 acbf 3abc 3bbe 046d 5a3f
00000180: 6606 d23d 3d60 363f 664b debf 8c2d 6fbd
00000190: 05ec a53b 04d2 f73d fe4b ffbe 08ad 6e3c
000001a0: b434 23c0 a0db 973d cf07 07ba 2911 fc3e
000001b0: 76ad 9a3e 02d6 2cbe 634f 67bf cc82 a6bf
000001c0: 02b8 c43c 8b78 183e 8994 00bf 4a1d 8cbf
000001d0: f9ea 07c0 c9d4 813e cfdc 403d c0c9 063f
000001e0: 90ba 823e 7d5d edbd 2939 edbd 8b38 3abf
000001f0: 1b95 dc3d 9300 c6bd d33e eebe 2bcf 99bd
00000200: 3ccb f7be 72bc a7be 1505 0e3d a7e5 8abc
00000210: ff43 09bf 03d6 18c0 9eb3 343b bff9 db3e
00000220: 2c78 37c0 2721 573f cd23 613e 3990 7cbe
00000230: 8836 203e 66de 01bf 47e7 0cc0 0a48 a73b
00000240: 0100 ed3e 62e3 c93e f988 7a3e 368c 1d3e
00000250: ce56 88bd 5938 8dbe f291 083f 3f64 3fbf
00000260: bd1a 7c3f ddc2 86bf f318 513e 9a2e 0fc0
00000270: 452e 753d 6b3c a23d 1585 44be 2493 93bf
00000280: 3ddf d53e f937 8b3f 8e45 64bc 9a6c b93d
00000290: 10a6 683d 1fc5 c63e 5899 b6bd 5f7c d1bd
000002a0: cc02 41c0 4d24 e3bd 555e a7bd 3f1a cc3e
000002b0: 51c0 debf 18c0 0d3f 2d63 de3e a335 94be
000002c0: 3ad5 d8be b16d 34be d6d9 7a3f 381a a93e
000002d0: ae1a 90be ebd1 c93e eed0 cf3e a26f d7be
000002e0: 4f27 823e 8eef 70bf 869e b4bc f53c f7bf
000002f0: d67a 293e eb38 6cc0 7bbd 483e 6228 10bf
00000300: 94e3 40bf ae4c 54c0 b4d3 15c0 17c3 c33d
00000310: e3da 323f af71 b73e 6651 383d 928f 4a3f
00000320: e8a7 fc3e cbeb b93f 271a 15bf aa2f 19be
00000330: 0903 58bf a052 f33e e2d2 d93e 01b9 723e
00000340: 86a2 dbbe bf46 b9bf eeb0 babe b511 85bf
00000350: 5d6d 17c0 e10c 48c0 2720 94be 8103 d8be
00000360: f430 6d3e f4e2 fabe 4568 67bf d91a 88be
00000370: 32b7 c73c 7dc5 09bf 2894 36c0 d105 813f
00000380: 4692 213e 8704 ba3f a12f e53e 64e4 133d
00000390: 363d 053d 31cc 9e3e 98f3 e4be 3b96 563d
000003a0: 8f5b 11c0 f4a4 62bd ee05 0c3d f1e0 7fbf
000003b0: e6d0 5bbf 74de 1b3f 8540 32bf b3a0 51bf
000003c0: 8627 8cbd 7bc1 1c3e 1b66 91bf 41ea 7bbd
000003d0: 25d6 7abe a154 9e3e 0bc5 5f3e 0757 43be
000003e0: 590f 853e 1641 48bf c305 003b efab 4d3e
000003f0: 01db 7ac0 2f08 1abe 9810 6e3d 0207 a1bf

fc3.bias f4 [4]
-1.3163784 -1.1164615 -0.56535095 -1.1931874
00000000: 167f a8bf 36e8 8ebf d7ba 10bf 5dba 98bf
